…
. gp in WGAN-GP was set to 10. In the methods with the critic, the number nc of critic iterations was set to 5.
11

Under review as a conference paper at ICLR 2019

Table 2: Convolutional Neural Network

Generator
Noise vector Fully-connected Reshape BatchNorm. TransposedConv. 5 × 5 BatchNorm. TransposedConv. 5 × 5 BatchNorm. TransposedConv. 5 × 5 BatchNorm. TransposedConv. 5 × 5 Total trainable parameters
Critic
Input image Conv. 5 × 5 BatchNorm. Conv. 5 × 5 BatchNorm. Conv. 5 × 5 BatchNorm. Conv. 5 × 5 BatchNorm. Flatten Fully-connected
Total trainable parameters

Output shape (100) (8096)
(4, 4, 1024) -
(8, 8, 512) -
(16, 16, 256) -
(32, 32, 128) -
(64, 64, 1) -
Output shape (64, 64, 1)
(32, 32, 128) -
(16, 16, 256) -
(8, 8, 512) -
(4, 4, 1024) -
(8096) (1) -

Parameters -
809.6k -
13.1M -
3.3M -
819.2k -
3.2k 18.0M
Parameters -
3.2k -
819.2k -
3.3M -
13.1M -
8.1k 17.2M

Activation -
ReLU -
ReLU -
ReLU -
ReLU -
tanh -
Activation -
ReLU -
ReLU -
ReLU -
ReLU -

Table 3: Fully-connected Neural Network

Generator Noise vector Fully-connected Fully-connected Fully-connected Fully-connected Total trainable parameters Critic Input points Fully-connected Fully-connected Fully-connected Fully-connected Total trainable parameters
…
